ML_Algorithms/NeuralNetwork/gestureModel_3.pth (torch, 2767 bytes, 4 tensors)

l1.weight f4 [16, 5]
0.43398434 -1.005567 -0.13304065 4.384561 4.1212854 0.9061971 2.35225 -3.4967606
4.8064003 -1.7174207 0.21720779 0.12409252 -0.06532946 0.08947796 -0.21227208 0.1606816
-0.27526864 -0.030568838 -0.21199399 0.25749218 -0.149104 0.40092093 -0.12175724 -0.082427144
-0.086565286 2.426761 -0.071644016 3.5390277 -0.13445958 8.979172 -3.9853308 2.7712345
3.8367774 4.6176567 -7.582711 -0.4604799 -0.08780985 -0.36888537 0.058942452 0.016474936
1.680203 2.5255444 5.269252 -3.6253 -3.318668 0.42223847 -0.3709576 0.2547968
0.21623409 -0.42638907 -3.8277042 -1.6229789 -4.354835 4.0381894 -1.6117536 0.06242174
0.18628973 0.014401227 -0.4397698 -0.27828693 -0.3370134 0.31540555 -0.049423963 -0.18233731
0.42013758 -0.37887058 -0.44016612 0.3777892 0.20875204 0.44610924 -0.11334932 -0.2728065
-0.33891362 0.2579108 0.120906465 5.307856 2.7362964 -2.9510908 -4.39774 -4.3009486
00000000: 3233 de3e 6bb6 80bf cf3b 08be 534e 8c40
00000010: 92e1 8340 88fc 673f 448b 1640 edca 5fc0
00000020: 08ce 9940 71d4 dbbf b86b 5e3e 3824 fe3d
00000030: 74cb 85bd 3840 b73d da5d 59be b889 243e
00000040: 03f0 8cbe 806b fabc f414 59be 04d6 833e
00000050: b8ae 18be 8245 cd3e dc5b f9bd 90cf a8bd
00000060: 2449 b1bd 0d50 1b40 19ba 92bd 6e7f 6240
00000070: c6af 09be b0aa 0f41 a90f 7fc0 e85b 3140
00000080: c38d 7540 d8c3 9340 92a5 f2c0 05c4 ebbe
00000090: a7d5 b3bd 8bde bcbe a46d 713d 72f6 863c
000000a0: e410 d73f 85a2 2140 b69d a840 ea04 68c0
000000b0: 0e65 54c0 a42f d83e 28ee bdbe ba74 823e
000000c0: 786c 5d3e ab4f dabe 1bf9 74c0 c6bd cfbf
000000d0: cf5a 8bc0 d938 8140 f14d cebf f0ad 7f3d
000000e0: bcc2 3e3e 20f3 6b3c 8229 e1be a07b 8ebe
000000f0: 058d acbe d67c a13e c870 4abd a2b6 3abe
00000100: 461c d73e 53fb c1be 745d e1be 966d c13e
00000110: 18c3 553e 6e68 e43e b023 e8bd 4bad 8bbe
00000120: 1686 adbe e20c 843e cf9d f73d f5d9 a940
00000130: 7b1f 2f40 acde 3cc0 49ba 8cc0 5fa1 89c0

l1.bias f4 [16]
-2.8392596 -1.7099246 -0.32136852 -0.4060396 -0.39237365 -1.5550439 -0.8860144 0.04029623
-0.7694022 -0.3856983 5.6410084 -0.30840236 -0.28887856 -0.22697665 -0.15081611 2.369698
00000000: 6eb6 35c0 cfde dabf 6a8a a4be 6ce4 cfbe
00000010: 33e5 c8be ae0b c7bf d7d1 62bf a90d 253d
00000020: 8bf7 44bf 3f7a c5be 2483 b440 eae6 9dbe
00000030: e4e7 93be 916c 68be 8a6f 1abe 22a9 1740

l2.weight f4 [10, 16]
-13.9535675 -29.742685 -0.051038772 0.00043573976 0.12753564 2.049145 -3.5287185 0.028987058
3.479093 -0.13443783 0.49348435 -0.06956926 0.19700316 0.0627822 -0.1401009 -0.28343913
-1.14078 9.727361 0.13485518 -0.08413714 0.22944233 -3.7924826 5.513657 -0.108442806
-15.728115 0.1008226 5.735585 0.08427608 0.22963926 -0.105490476 0.1376539 -0.16186084
1.477213 -2.2276418 -0.2462335 -0.203145 0.050856143 -2.3420122 14.571499 0.15157339
0.14238946 -0.2057403 -0.3853125 -0.043144852 -0.22965768 0.06989521 -0.012804759 -22.325325
-17.44021 -2.0644894 -0.20538676 0.090328515 -0.0806219 1.2794664 -9.364704 -0.18971103
8.135659 -0.19801673 -12.027374 0.007488698 -0.18647563 -0.23053753 -0.25771934 8.8397455
-1.5321902 6.409159 0.22656885 -0.18350804 0.19217506 -2.961233 7.0672474 -0.043455563
4.013682 0.07358459 -6.869652 0.0027011335 0.14280775 -0.038149506 -0.13595735 2.730278
7.8507414 -0.129342 -0.0797565 -0.0050765574 -0.16491702 2.9133902 -6.040438 0.113238975
-1.0189248 -0.22479257 -8.339896 -0.09174207 0.12226972 -0.13491508 -0.0035814422 -2.4944372
-0.71525025 -7.09739 -0.031318873 0.19312033 -0.036004454 1.8074659 -25.551676 0.044381198
-0.23514372 -0.06373671 -2.9124162 0.11008203 0.0782575 0.23963657 0.10022129 6.4664664
-0.5973198 -14.200523 0.11196998 0.07204512 0.20032567 2.000489 0.9920525 -0.17872435
-0.12171705 -0.14184928 0.48378834 -0.012436628 -0.19507483 0.22597745 0.00035434833 -11.270899
8.0677185 1.6857455 0.20654982 0.18715325 0.14388728 2.6888092 -8.248045 -0.08898779
-20.9565 -0.2242997 1.9457633 -0.17053121 -0.019367933 0.13488668 -0.103309624 -11.223129
-6.7315164 6.9886107 0.23495033 -0.031436354 -0.24952394 -3.3954368 -5.5829253 0.09654738
-2.5451417 -0.021788865 5.91 0.19396275 -0.0588004 -0.11547765 -0.037331723 6.9234624
00000000: d041 5fc1 05f1 edc1 080e 51bd 0074 e439
00000010: b498 023e 3125 0340 86d6 61c0 4476 ed3c
00000020: 76a9 5e40 12aa 09be fba9 fc3e 547a 8ebd
00000030: 32bb 493e f493 803d 9c76 0fbe ef1e 91be
00000040: 1405 92bf 45a3 1b41 7a17 0a3e 1850 acbd
00000050: eef2 6a3e 09b8 72c0 e16f b040 4317 debd
00000060: 5ca6 7bc1 147c ce3d ea89 b740 f098 ac3d
00000070: 8e26 6b3e 640b d8bd 25f5 0c3e d9be 25be
00000080: 5115 bd3f af91 0ec0 a224 7cbe 3e05 50be
00000090: 884e 503d 87e3 15c0 dc24 6941 0e36 1b3e
000000a0: 8bce 113e 96ad 52be ae47 c5be a8b8 30bd
000000b0: 622b 6bbe 3825 8f3d 0dcb 51bc 449a b2c1
000000c0: 8d85 8bc1 9820 04c0 e850 52be 28fe b83d
000000d0: 181d a5bd 8ec5 a33f d4d5 15c1 9c43 42be
000000e0: a92b 0241 e6c4 4abe 2070 40c1 c063 f53b
000000f0: 78f3 3ebe 0812 6cbe caf3 83be 996f 0d41
00000100: cf1e c4bf d517 cd40 aa01 683e 88e9 3bbe
00000110: 8ac9 443e d784 3dc0 e426 e240 76fe 31bd
00000120: 1570 8040 84b3 963d 30d4 dbc0 8005 313b
00000130: 323c 123e a842 1cbd 6738 0bbe e0bc 2e40
00000140: 4639 fb40 3b72 04be 6057 a3bd 4059 a6bb
00000150: 02e0 28be fc74 3a40 454b c1c0 d6e9 e73d
00000160: 216c 82bf 0630 66be 3770 05c1 44e3 bbbd
00000170: 8c68 fa3d 2e27 0abe a1b6 6abb dca4 1fc0
00000180: a41a 37bf d21d e3c0 3848 00bd 56c1 453e
00000190: 6879 13bd 0b5b e73f d569 ccc1 0fc9 353d
000001a0: 84c9 70be 6488 82bd 0765 3ac0 b072 e13d
000001b0: 7845 a03d 4a63 753e d240 cd3d 4bed ce40
000001c0: f3e9 18bf 5835 63c1 8450 e53d 648c 933d
000001d0: 2c22 4d3e 0308 0040 27f7 7d3f 8403 37be
000001e0: ca46 f9bd f040 11be 1bb3 f73e 00c3 4bbc
000001f0: b2c1 47be a266 673e d4c7 b939 9a55 34c1
00000200: 6015 0141 82c6 d73f cc81 533e 1aa5 3f3e
00000210: 3057 133e 7315 2c40 fef7 03c1 3b3f b6bd
00000220: e9a6 a7c1 d2ae 65be c60e f93f bc9f 2ebe
00000230: 80a9 9ebc bc1f 0a3e ff93 d3bd f091 33c1
00000240: 9568 d7c0 b3a2 df40 d296 703e 68c3 00bd
00000250: 3483 7fbe d64e 59c0 53a7 b2c0 a2ba c53d
00000260: 9ae3 22c0 907e b2bc b81e bd40 2c9e 463e
00000270: b0d8 70bd 8c7f ecbd 26e9 18bd 018d dd40

l2.bias f4 [10]
1.9572616 0.84070945 -1.9704024 0.97260636 -1.9229792 -2.1574383 0.7435378 -0.16150263
-0.02454779 2.493136
00000000: 8c87 fa3f bc38 573f 2536 fcbf bbfc 783f
00000010: 2f24 f6bf 7813 0ac0 7e58 3e3f f260 25be
00000020: 7218 c9bc 8a8f 1f40
